…
 Layer (type)                   Output Shape         Param #     Connected to                     
==================================================================================================
 pos_y (InputLayer)             [(None, 1)]          0           []                               
                                                                                                  
 pos_z (InputLayer)             [(None, 1)]          0           []                               
                                                                                                  
 dense_2 (Dense)                (None, 10)           20          ['pos_y[0][0]']                  
                                                                                                  
 dense_3 (Dense)                (None, 8)            16          ['pos_z[0][0]']                  
                                                                                                  
 batch_normalization_2 (BatchNo  (None, 10)          40          ['dense_2[0][0]']                
 rmalization)                                                                                     
                                                                                                  
 batch_normalization_3 (BatchNo  (None, 8)           32          ['dense_3[0][0]']                
 rmalization)                                                                                     
                                                                                                  
 pos_x (InputLayer)             [(None, 1)]          0           []                               
                                                                                                  
 re_lu_2 (ReLU)                 (None, 10)           0           ['batch_normalization_2[0][0]']  
                                                                                                  
 re_lu_3 (ReLU)                 (None, 8)            0           ['batch_normalization_3[0][0]']  
                                                                                                  
 dense (Dense)                  (None, 1)            2           ['pos_x[0][0]']                  
                                                                                                  
 dense_1 (Dense)                (None, 1)            2           ['pos_x[0][0]']                  
                                                                                                  
 lambda (Lambda)                (None, 10, 8)        0           ['re_lu_2[0][0]',                
                                                                  're_lu_3[0][0]']                
                                                                                                  
 batch_normalization (BatchNorm  (None, 1)           4           ['dense[0][0]']                  
 alization)                                                                                       
                                                                                                  
 batch_normalization_1 (BatchNo  (None, 1)           4           ['dense_1[0][0]']                
 rmalization)                                                                                     
                                                                                                  
 flatten (Flatten)              (None, 80)           0           ['lambda[0][0]']                 
                                                                                                  
 re_lu (ReLU)                   (None, 1)            0           ['batch_normalization[0][0]']    
                                                                                                  
 re_lu_1 (ReLU)                 (None, 1)            0           ['batch_normalization_1[0][0]']  
                                                                                                  
 multiply (Multiply)            (None, 80)           0           ['flatten[0][0]',                
                                                                  're_lu[0][0]']                  
                                                                                                  
 multiply_1 (Multiply)          (None, 80)           0           ['flatten[0][0]',                
                                                                  're_lu_1[0][0]']                
                                                                                                  
 dense_4 (Dense)                (None, 640)          51840       ['multiply[0][0]']               
                                                                                                  
 dense_5 (Dense)                (None, 640)          51840       ['multiply_1[0][0]']             
                                                                                                  
 batch_normalization_4 (BatchNo  (None, 640)         2560        ['dense_4[0][0]']                
 rmalization)                                                                                     
                                                                                                  
 batch_normalization_5 (BatchNo  (None, 640)         2560        ['dense_5[0][0]']                
 rmalization)                                                                                     
                                                                                                  
 re_lu_4 (ReLU)                 (None, 640)          0           ['batch_normalization_4[0][0]']  
                                                                                                  
 re_lu_5 (ReLU)                 (None, 640)          0           ['batch_normalization_5[0][0]']  
                                                                                                  
 concatenate (Concatenate)      (None, 1280)         0           ['re_lu_4[0][0]',                
                                                                  're_lu_5[0][0]']                
                                                                                                  
 dense_6 (Dense)                (None, 160)          204960      ['concatenate[0][0]']            
                                                                                                  
 batch_normalization_6 (BatchNo  (None, 160)         640         ['dense_6[0][0]']                
 rmalization)                                                                                     
                                                                                                  
 re_lu_6 (ReLU)                 (None, 160)          0           ['batch_normalization_6[0][0]']  
                                                                                                  
 vis_full (Dense)               (None, 160)          25760       ['re_lu_6[0][0]']                
                                                                                                  
==================================================================================================
Total params: 340,280
Trainable params: 337,360
Non-trainable params: 2,920
__________________________________________________________________________________________________
…
